HW4_DQN and its Variants/HW4-3_Enhance DQN for Random Mode/lightning_logs/version_7/checkpoints/epoch=9-step=160130.ckpt (torch, 312267 bytes, 18 tensors)

model.0.weight f4 [150, 64]
-0.2007222 -0.17891996 -0.1975369 -0.129581 -0.17052722 -0.20742066 0.07670679 0.030308355
0.008988684 0.016889013 0.05862465 -0.10478374 -0.04881047 -0.1470192 -0.018194305 -0.17736897
0.010874435 -0.09110467 -0.13793057 -0.06700907 -0.13289225 -0.10611611 -0.13270807 -0.062107127
-0.17275015 -0.127499 -0.030923743 -0.12052795 -0.1602798 -0.02453822 -0.0848516 -0.19596453
-0.06540402 0.010835298 -0.116397426 -0.15611191 -0.14954706 -0.191627 -0.19278418 -0.15856805
-0.13591616 -0.025126822 -0.0826637 -0.18738148 -0.11809679 -0.10135343 -0.01791523 -0.07017236
-0.20351057 -0.16777207 -0.09913865 -0.048371013 -0.18281081 -0.08616179 -0.18118839 -0.20219477
-0.12054633 -0.10275291 -0.16242479 -0.12367561 -0.18161891 -0.05080461 -0.17588103 -0.19484189
-0.001995042 0.027793378 -0.10440178 -0.0004553795 -0.07210423 0.09346977 0.046980888 -0.042805165
0.11195736 -0.035860956 -0.04721254 -0.058024272 0.07396071 0.08025327 0.051012173 0.001583755
-0.05707918 0.08230777 0.007080838 0.004828498 -0.084183544 0.052116275 -0.04966508 -0.11721772
-0.026648238 -0.026951417 -0.1118359 -0.0728371 0.052145556 0.016642213 0.043942347 0.12225652
0.03817606 -0.0901414 -0.08703421 0.083719194 0.05918783 -0.10775404 0.029303819 0.11857672
0.08659896 -0.048576728 0.046992198 0.06682077 -0.10844174 0.11850454 -0.032769516 -0.0104148835
0.12323551 0.080427304 0.044636056 0.0385561 -0.06430867 -0.050224274 0.060826793 -0.05074668
0.09497461 0.044362783 0.12140298 -0.08256495 -0.11670591 -0.06159149 0.095018536 -0.038356915
-0.06299075 -0.042596947 -0.71399176 -0.7786723 0.6125504 -0.11218842 -0.34093374 -0.25224712
0.7409921 0.66267544 -0.10483826 -0.21592365 0.36214283 0.40104097 0.13702296 -0.36821544
0.16155413 -0.042124383 -0.058395367 -0.035499938 -0.012941122 -0.09897657 -0.06321783 -0.05131738
-0.08893483 -0.12583515 -0.07479915 -0.062437944 -0.011568182 -0.11319288 -0.078419365 -0.010289501
-0.025019085 0.22443211 -0.055702936 -0.12914333 -0.08035198 -0.04313361 -0.029312301 -0.0025994857
-0.0414832 -0.08928219 -0.071374215 -0.104401395 -0.03461082 -0.04417199 -0.06103202 -0.011547677
-0.09116193 -0.06680386 -0.04636369 0.0023742884 -0.054953754 0.13385622 -0.02114197 -0.08160985
-0.11336226 -0.03781876 -0.092750385 -0.04817748 -0.029781718 -0.067489535 -0.05761561 -0.074607745
-0.028856577 -0.11632306 -0.106159 0.058266755 -0.079551175 -0.12961382 -0.22986597 -0.00018160538
-0.11063314 -0.078102 -0.2704008 -0.25114962 -0.13946646 -0.10252278 -0.028443921 -0.06523146
-0.019781291 -0.048604824 -0.22343546 -0.15717861 -0.0219995 -0.14217205 -0.119251505 -0.21889035
-0.19245102 -0.073126465 -0.04965113 -0.052692708 -0.1451288 -0.14205028 -0.056641463 -0.12676194
-0.0056631397 -0.0021388913 -0.21533012 -0.15675382 -0.13799919 -0.08984163 -0.050388303 -0.017270194
-0.091852844 -0.20985171 -0.099424444 -0.0101895435 -0.024966698 -0.110180184 -0.09695532 -0.012308034
-0.18077593 -0.2027406 0.001354657 -0.116168626 -0.009309177 0.032133695 -0.11695159 -0.05379441
-0.08551867 -0.10597584 -0.036330163 -0.22571206 -0.19579324 -0.15425526 -0.1480177 -0.012099932
00000000: 1f8a 4dbe cb36 37be 1d47 4abe e2b0 04be
00000010: b09e 2ebe 1566 54be 7318 9d3d 3a49 f83c
00000020: 4645 133c d45a 8a3c 6720 703d dc98 d6bd
00000030: 7ded 47bd 338c 16be 390c 95bc 36a0 35be
00000040: b02a 323c 1695 babd ac3d 0dbe 0d3c 89bd
00000050: e814 08be 6753 d9bd a0e4 07be 0b64 7ebd
00000060: 6ae5 30be 198f 02be ca53 fdbc 5cd7 f6bd
00000070: 6320 24be 6104 c9bc adc6 adbd edaa 48be
00000080: 8bf2 85bd 8986 313c c661 eebd cddb 1fbe
00000090: dd22 19be de39 44be 3769 45be aa5f 22be
000000a0: 9b2d 0bbe c4d6 cdbc 964b a9bd eee0 3fbe
000000b0: bbdc f1bd 6392 cfbd f6c2 92bc 87b6 8fbd
000000c0: 1365 50be 71cc 2bbe 3409 cbbd af20 46bd
000000d0: c232 3bbe 9875 b0bd 7389 39be 250c 4fbe
000000e0: ffe0 f6bd 1e70 d2bd af52 26be a349 fdbd
000000f0: 4ffa 39be 7f18 50bd 281a 34be a284 47be
00000100: 40bf 02bb f0ae e33c 9ad0 d5bd 00c0 eeb9
00000110: 62ab 93bd 146d bf3d 086f 403d 7854 2fbd
00000120: e649 e53d f0e2 12bd f061 41bd dcaa 6dbd
00000130: b678 973d d45b a43d 24f2 503d 0096 cf3a
00000140: dccb 69bd fa90 a83d 6006 e83b 6038 9e3b
00000150: 6c68 acbd e077 553d 9c6d 4bbd d80f f0bd
00000160: 684d dabc 38c9 dcbc 380a e5bd 9e2b 95bd
00000170: 9496 553d 4055 883c e4fc 333d a061 fa3d
00000180: 805e 1c3d 0e9c b8bd fe3e b2bd f874 ab3d
00000190: f06e 723d 26ae dcbd 900e f03c 5ad8 f23d
000001a0: cc5a b13d 64f8 46bd e47a 403d 54d9 883d
000001b0: b416 debd 82b2 f23d 5439 06bd 30a3 2abc
000001c0: e662 fc3d 12b7 a43d 4cd4 363d 00ed 1d3d
000001d0: 44b4 83bd f8b7 4dbd 8425 793d c0db 4fbd
000001e0: 0c82 c23d c0b5 353d 20a2 f83d d017 a9bd
000001f0: 8203 efbd 5c47 7cbd 1499 c23d 241c 1dbd
00000200: 4b01 81bd 237a 2ebd 2ac8 36bf 1157 47bf
00000210: 1ad0 1c3f 0bc3 e5bd de8e aebe 8926 81be
00000220: a9b1 3d3f 19a5 293f 71b5 d6bd 171b 5dbe
00000230: c96a b93e 3e55 cd3e bf4f 0c3e bc86 bcbe
00000240: 726e 253e 9e8a 2cbd fb2f 6fbd 6268 11bd
00000250: 0007 54bc 3ab4 cabd 5a78 81bd 2c32 52bd
00000260: 7723 b6bd eeda 00be 4c30 99bd eebe 7fbd
00000270: 7988 3dbc abd1 e7bd 559a a0bd 4c95 28bc
00000280: d3f4 ccbc 88d1 653e c328 64bd 263e 04be
00000290: 948f a4bd deac 30bd 5a20 f0bc 225c 2abb
000002a0: 4aea 29bd 95d9 b6bd a52c 92bd 66d0 d5bd
000002b0: 13c4 0dbd b0ed 34bd b6fc 79bd 7832 3dbc
000002c0: 1bb3 babd 76d0 88bd dae7 3dbd f399 1b3b
000002d0: 3017 61bd 9b11 093e ed31 adbc 1123 a7bd
000002e0: 792a e8bd d8e7 1abd eaf3 bdbd c055 45bd
000002f0: caf8 f3bc f437 8abd 59fe 6bbd f2cb 98bd
00000300: a164 ecbc c93a eebd e469 d9bd 1fa9 6e3d
00000310: baeb a2bd 7cb9 04be fc61 6bbe 536d 3eb9
00000320: a193 e2bd f1f3 9fbd f971 8abe af96 80be
00000330: 4cd0 0ebe 77f7 d1bd 3a03 e9bc 1298 85bd
00000340: 600c a2bc da15 47bd 44cc 64be 6ef3 20be
00000350: 4c38 b4bc 8d95 11be 223a f4bd cb24 60be
00000360: e111 45be 54c3 95bd fc5e 4bbd 4fd4 57bd
00000370: a59c 14be a175 11be e100 68bd e2cd 01be
00000380: dc91 b9bb a42c 0cbb 807f 5cbe 1384 20be
00000390: a94f 0dbe e3fe b7bd f763 4ebd 397a 8dbc
000003a0: 581d bcbd 5ee3 56be 0b9f cbbd 0bf2 26bc
000003b0: f686 ccbc 26a6 e1bd 8390 c6bd a3a7 49bc
000003c0: 531d 39be 3b9b 4fbe bf8e b13a d1e9 edbd
000003d0: 8585 18bc 9f9e 033d 5184 efbd 8757 5cbd
000003e0: 6a24 afbd dc09 d9bd f0ce 14bd 1021 67be
000003f0: 067e 48be 17f5 1dbe f491 17be cb3e 46bc

model.0.bias f4 [150]
0.010191566 -0.06979349 0.23088855 0.122143425 -0.05152826 0.15177841 0.028895307 0.0032791204
0.08475776 0.094127834 0.05150557 0.11558263 0.1137466 0.10255562 0.15068144 0.08315169
-0.037560638 -0.11867163 0.009895112 0.051426873 0.22242686 0.19133817 -0.13672706 -0.11853455
0.14363581 0.0065727043 -0.012357542 0.02655718 -0.1907343 -0.0015592541 0.19264449 0.040377095
-0.07807678 0.19177349 0.08022554 -0.11037232 -0.044670947 0.1467063 0.34862894 -0.050780155
0.16111588 0.103173144 0.04187216 0.09279423 -0.04756341 -0.0837625 -0.031626012 0.28233364
-0.005372422 0.07577077 0.14047942 0.27885786 -0.025410643 -3.0456264e-05 -0.115875036 0.07938124
0.32996184 -0.024702702 0.037775043 0.08946709 0.046347123 0.09927458 0.1999369 -0.08294913
0.057236664 -0.14042503 -0.1134918 -0.11163972 -0.05390121 -0.12128271 0.17805143 0.2263793
0.240477 -0.023158742 0.012633219 0.052569613 0.41414496 0.1313773 0.1185534 0.020008879
-0.035740897 0.24259242 0.22170642 0.16477634 -0.069202915 -0.04895085 -0.0287435 0.04198693
0.018647207 0.03648521 0.19226415 -0.12822148 0.1699938 0.09248737 -0.09330769 -0.03702016
0.19195214 -0.054031953 0.096104704 0.036912143 -0.06608805 0.15499888 0.1261041 0.0767517
0.056411155 0.02956093 0.19849351 0.0069139972 -0.056131225 0.023552116 0.0078092096 0.004086692
-0.10229277 0.017092872 -0.014459312 0.014280628 -0.0069884215 -0.06726383 0.004310933 -0.1352808
0.0874251 -0.040625773 0.086419754 -0.11497554 -0.015671179 -0.12230039 0.19022518 0.22225557
0.02124013 -0.113376334 0.11719189 0.156495 0.18008138 -0.1105577 0.31180906 -0.051092166
0.016683439 -0.029110372 0.18453309 -0.02602165 0.17415458 0.17992839 0.13119976 0.24692924
0.08978346 0.04399101 0.04344516 0.09709577 0.014439621 0.19099621
00000000: 87fa 263c e4ef 8ebd 0c6e 6c3e 5526 fa3d
00000010: 4c0f 53bd cd6b 1b3e dab5 ec3c 83e6 563b
00000020: 7a95 ad3d 18c6 c03d 81f7 523d 96b6 ec3d
00000030: faf3 e83d ae08 d23d 3c4c 1a3e 6f4b aa3d
00000040: 2fd9 19bd 1d0a f3bd 1c1f 223c fca4 523d
00000050: dec3 633e 27ee 433e 2e02 0cbe 3ec2 f2bd
00000060: 4415 133e d75f d73b 4a77 4abc 718e d93c
00000070: da4f 43be e35f ccba 9944 453e 7462 253d
00000080: b8e6 9fbd 4560 443e 4a4d a43d e20a e2bd
00000090: e2f8 36bd 2d3a 163e 7e7f b23e dafe 4fbd
000000a0: 90fb 243e 714c d33d 2482 2b3d e70a be3d
000000b0: dad1 42bd ac8b abbd 478a 01bd 098e 903e
000000c0: 240b b0bb b52d 9b3d d6d9 0f3e 75c6 8e3e
000000d0: fb29 d0bc 547c ffb7 e44f edbd a292 a23d
000000e0: c2f0 a83e 525d cabc 01ba 1a3d 863a b73d
000000f0: 7bd6 3d3d 7950 cb3d 42bc 4c3e 3ce1 a9bd
00000100: fe70 6a3d 94cb 0fbe 646e e8bd 5ea3 e4bd
00000110: 84c7 5cbd 1263 f8bd 1d53 363e facf 673e
00000120: 9a3f 763e 67b7 bdbc 90fb 4e3c 3c53 573d
00000130: cf0a d43e c587 063e 20cc f23d a9e9 a33c
00000140: 0c65 12bd 266a 783e 0207 633e 21bb 283e
00000150: 42ba 8dbd b080 48bd 7d77 ebbc 7dfa 2b3d
00000160: 07c2 983c 8471 153d e5e0 443e 7e4c 03be
00000170: db12 2e3e 056a bd3d 1a18 bfbd 74a2 17bd
00000180: 1a8f 443e 9c50 5dbd 8bd2 c43d 3031 173d
00000190: 2c59 87bd 07b8 1e3e 6f21 013e ff2f 9d3d
000001a0: 620f 673d c329 f23c e241 4b3e d08e e23b
000001b0: dbe9 65bd 5ef0 c03c 66e4 ff3b a8e9 853b
000001c0: df7e d1bd 5a06 8c3c c0e6 6cbc 4cf9 693c
000001d0: 21ff e4bb 9ec1 89bd ba42 8d3b 0d87 0abe
000001e0: ee0b b33d 3667 26bd d7fc b03d 4c78 ebbd
000001f0: d860 80bc a078 fabd 64ca 423e f796 633e
00000200: c8ff ad3c da31 e8bd 4d02 f03d 3a40 203e
00000210: 4167 383e 136c e2bd 70a5 9f3e 0546 51bd
00000220: b5ab 883c e078 eebc 3ef6 3c3e 5b2b d5bc
00000230: 9455 323e 263f 383e 3b59 063e 05db 7c3e
00000240: 64e0 b73d eb2f 343d 8df3 313d 26da c63d
00000250: 2994 6c3c 8394 433e

model.2.weight f4 [100, 150]
-0.02473175 0.031744845 0.031784873 -0.077313825 -0.050857484 -0.008686447 -0.036642805 -0.063315935
-0.1136885 -0.0020884308 0.06074449 -0.09143941 -0.08460453 0.0068080993 -0.062092125 0.06671294
-0.051047493 -0.012653282 -0.023446482 0.07507857 0.016482618 -0.020449307 -0.065484725 -0.0668316
0.031866882 0.04316341 -0.066363305 -0.03714232 0.026414793 0.05980958 -0.09048724 -0.0007027191
0.015999079 -0.09881237 0.04418146 0.07360783 0.06598584 -0.017633809 -0.057298586 -0.06224366
-0.01647604 0.05099716 -0.055271883 -0.0037471105 -0.019552223 -0.035321627 -0.09116904 0.014566797
-0.08707583 -0.014618291 0.019304072 -0.09265996 -0.013977684 -0.02545242 0.00271336 -0.064958245
0.024381371 -0.06349315 -0.11692715 0.01268778 0.023187844 -0.07585835 -0.05169548 -0.014248826
-0.016957544 0.069781035 0.07385844 -0.012288481 0.032484524 0.035862274 0.040826213 0.021133816
-0.050734136 -0.020028587 -0.053307332 -0.019342061 0.004189756 -0.017047225 -0.0052931607 -0.016406167
0.040378973 -0.0352196 -0.074361034 0.021407988 0.053268254 0.029867671 -0.027621744 -0.008364063
-0.027705457 0.059931606 -0.0697645 -0.006882243 -0.06572342 -0.084232114 0.01314228 0.057961717
0.0031425075 -0.008756444 -0.09060813 -0.050879598 -0.003800325 0.022696551 -0.074687 0.024543237
0.025073778 -0.0105564315 -0.092717335 -0.05681695 0.033423096 0.024974361 -0.04993617 0.0051340163
0.07464364 -0.020713365 0.011207193 -0.016282253 -0.03421283 -0.02532453 -0.059000157 0.012711562
0.0020096877 0.0055813882 -0.04397705 0.035482645 -0.033869375 0.07736263 -0.03573959 -0.0016636755
-0.030271754 0.05557528 0.0030178356 0.033553094 0.022458687 0.0041139303 -0.05503794 0.011050334
0.025265425 -0.06581938 -0.025003375 -0.07306251 -0.0093971295 0.033413578 0.051348604 -0.00029081915
-0.05098436 -0.029443434 -0.11314045 -0.057789017 -0.05686863 0.07049653 -0.10052743 -0.055685684
-0.37606055 0.00095138646 -0.0486875 -0.0034932895 -0.06590818 -0.020734109 -0.060636174 -0.020214492
0.02981707 -0.040098272 0.16349094 -0.019412272 -0.08828618 -0.077329084 -0.016960794 0.17536649
-0.04208613 -0.044335347 -0.13428536 0.07573413 0.0633444 -0.014631063 -0.116882205 -0.046519775
0.03275337 0.47236383 0.067764506 0.03921845 0.0037880912 -0.080046184 0.037771314 -0.15469852
-0.11898622 -0.07753581 0.07289086 -0.066928096 -0.08259658 -0.012303968 -0.20698594 -0.10111944
0.015728042 -0.03641487 0.5266503 -0.061056904 -0.07136766 0.07584385 -0.08112297 -0.05263535
-0.041671183 0.1135847 -0.06841764 0.009064327 0.004976392 -0.16441433 0.03743678 -0.003271404
-0.1117273 -0.04754183 -0.011739416 -0.26481068 -0.033985216 -0.039198145 -0.20005806 -0.030510208
0.001664564 -0.05945834 -0.018529087 0.010970175 -0.52064234 0.013131578 -0.13900559 0.1656184
0.07372984 0.0076963753 0.16881514 0.009298151 -0.05861232 -0.24780898 0.029413335 -0.1635461
-0.1294097 -0.03094046 -0.03162199 -0.010432556 0.28738543 -0.09591271 0.020299487 0.03817934
-0.0035580343 0.036570948 -0.10949455 -0.2513486 -0.024397045 0.010976948 -0.07547416 0.039162055
-0.26076064 -0.063392475 0.036479697 -0.3111388 0.042354375 -0.014128463 0.011478964 -0.039895836
00000000: 3d9a cabc e206 023d db30 023d b656 9ebd
00000010: f04f 50bd 9951 0ebc c416 16bd c9ab 81bd
00000020: 84d5 e8bd 0ede 08bb 37cf 783d 9644 bbbd
00000030: 2445 adbd 7a16 df3b 5054 7ebd cba0 883d
00000040: 2d17 51bd b64f 4fbc d612 c0bc cbc2 993d
00000050: 8e06 873c 4e85 a7bc db1c 86bd 02df 88bd
00000060: d986 023d 1ecc 303d 7ce9 87bd 8c22 18bd
00000070: d663 d83c e4fa 743d 6051 b9bd ae36 38ba
00000080: 8010 833c 245e cabd 9ef7 343d b4bf 963d
00000090: 9623 873d c774 90bc ecb1 6abd 35f3 7ebd
000000a0: c3f8 86bc 66e2 503d c564 62bd 1592 75bb
000000b0: fc2b a0bc 69ad 10bd d5b6 babd 93a9 6e3c
000000c0: d054 b2bd 8e81 6fbc 9323 9e3c 81c4 bdbd
000000d0: a802 65bc 9881 d0bc a0d2 313b d408 85bd
000000e0: 71bb c73c b208 82bd 8077 efbd 68e0 4f3c
000000f0: 6ff4 bd3c 9f5b 9bbd a4be 53bd e873 69bc
00000100: 8cea 8abc 5ce9 8e3d 1843 973d a055 49bc
00000110: 7e0e 053d 52e4 123d 6339 273d d320 ad3c
00000120: 99ce 4fbd fe12 a4bc ca58 5abd 3e73 9ebc
00000130: 384a 893b 9fa6 8bbc 4072 adbb 3a66 86bc
00000140: 6c64 253d 6d42 10bd 994a 98bd ce5f af3c
00000150: d02f 5a3d 0cad f43c ff46 e2bc 6c09 09bc
00000160: 8ef6 e2bc d87a 753d b1e0 8ebd 7084 e1bb
00000170: 009a 86bd e381 acbd b852 573c 4469 6d3d
00000180: 87f2 4d3b 3077 0fbc c190 b9bd 2067 50bd
00000190: e00e 79bb 1eee b93c 7ff5 98bd e60e c93c
000001a0: 8667 cd3c e2f4 2cbc 96e2 bdbd e4b8 68bd
000001b0: a8e6 083d 0897 cc3c df89 4cbd 403b a83b
000001c0: c4de 983d 13af a9bc 609e 373c 5c62 85bc
000001d0: c122 0cbd 6475 cfbc 26aa 71bd 2844 503c
000001e0: f7b4 033b 14e4 b63b 4721 34bd 4056 113d
000001f0: 9dba 0abd 4c70 9e3d ad63 12bd b00f daba
00000200: 78fc f7bc e8a2 633d e1c6 453b f86e 093d
00000210: 48fb b73c 26ce 863b 776f 61bd 760c 353c
00000220: 70f9 ce3c 50cc 86bd e1d3 ccbc cca1 95bd
00000230: 6bf6 19bc addc 083d ea52 523d 1679 98b9
00000240: fad4 50bd 5b33 f1bc 2eb6 e7bd 2db4 6cbd
00000250: 15ef 68bd 7c60 903d 53e1 cdbd ac16 64bd
00000260: 028b c0be 7766 793a 8b6c 47bd acef 64bb
00000270: defa 86bd 94da a9bc a35d 78bd dd98 a5bc
00000280: ee42 f43c 163e 24bd 2b6a 273e 7c06 9fbc
00000290: 62cf b4bd b65e 9ebd 5df1 8abc 4693 333e
000002a0: 8162 2cbd fb98 35bd 1a82 09be 7f1a 9b3d
000002b0: b5ba 813d 20b7 6fbc f05f efbd 858b 3ebd
000002c0: 6628 063d acd9 f13e 1ec8 8a3d 87a3 203d
000002d0: a041 783b 41ef a3bd 18b6 1a3d 4a69 1ebe
000002e0: 0caf f3bd 18cb 9ebd ce47 953d 9911 89bd
000002f0: 6528 a9bd 9596 49bc 1ff4 53be b517 cfbd
00000300: 18d8 803c c227 15bd 8ed2 063f ce16 7abd
00000310: 3529 92bd 0554 9b3d cd23 a6bd 2a98 57bd
00000320: 67af 2abd 189f e83d 8c1e 8cbd 8b82 143c
00000330: 0011 a33b 3b5c 28be 4f57 193d 0d65 56bb
00000340: 48d1 e4bd 39bb 42bd ae56 40bc 4495 87be
00000350: 1534 0bbd 3c8e 20bd 05dc 4cbe 8bf0 f9bc
00000360: 802d da3a 978a 73bd 50ca 97bc 40bc 333c
00000370: d148 05bf d525 573c 7b57 0ebe df97 293e
00000380: acff 963d e031 fc3b e0dd 2c3e 4657 183c
00000390: 7913 70bd a3c1 7dbe 3cf4 f03c a178 27be
000003a0: fa83 04be d976 fdbc 0f86 01bd 50ed 2abc
000003b0: 2f24 933e e26d c4bd 1c4b a63c f161 1c3d
000003c0: e92d 69bb 6bcb 153d ae3e e0bd c4b0 80be
000003d0: 50dc c7bc a8d8 333c 3292 9abd 6468 203d
000003e0: 6b82 85be ead3 81bd bc6b 153d 964d 9fbe
000003f0: c87b 2d3d 127b 67bc 4412 3c3c d169 23bd

model.2.bias f4 [100]
-0.09448727 0.29470432 -0.015745798 0.11117108 0.46218917 0.00018910039 -0.13405156 -0.039698564
-0.2751808 -0.110515475 -0.35295522 0.3350915 0.20432352 0.9325785 -0.12564921 -0.048047993
0.29013994 -0.14292918 -0.09058803 -0.116624065 0.21649133 -0.1822364 -0.12996706 -0.1602614
-0.072343074 0.35354358 -0.16362342 -0.045091193 -0.062140606 0.48977095 -0.04785074 -0.05659463
-0.0972589 -0.16780843 -0.41622552 -0.15927969 -0.6218344 0.2925139 0.15826792 0.16375121
-0.14078589 -0.10954824 0.24585187 0.5280058 0.304477 0.3164377 -0.12365047 0.44816864
0.49394208 0.10877626 0.29537532 -0.12696096 0.05835091 -0.3913254 -0.11087391 -0.13663279
0.6451595 0.48391116 -0.109184794 -0.27725995 0.07383735 -0.41236588 0.2465838 -0.19907881
-0.10916152 -0.1704513 -0.017474797 -1.0564541 -0.09213005 -0.32111475 -0.13808063 -0.0099400105
0.6741186 -0.12206241 0.3401463 -0.07473841 -0.08597101 0.43882048 -0.26700887 0.12770729
0.63134557 -0.27917486 0.5669008 -0.14612627 -0.090334855 -0.09759471 0.020906078 -0.146163
-0.19284321 -0.15667231 -0.036555387 0.11349446 -0.073567346 0.11888056 0.065844625 -0.31440517
0.550947 -0.12662248 -0.072394945 -0.8838067
00000000: 8b82 c1bd 7ce3 963e 55fd 80bc aaad e33d
00000010: 0fa4 ec3e 4049 4639 d044 09be f69a 22bd
00000020: 7fe4 8cbe f055 e2bd 8cb6 b4be 1d91 ab3e
00000030: 2f3a 513e 77bd 6e3f 30aa 00be f9cd 44bd
00000040: 398d 943e 075c 12be 3886 b9bd 99d8 eebd
00000050: e7af 5d3e 2e9c 3abe 1616 05be 901b 24be
00000060: 9b28 94bd aa03 b53e e68c 27be 8bb1 38bd
00000070: 2687 7ebd 42c3 fa3e 23ff 43bd c5cf 67bd
00000080: ad2f c7bd f9d5 2bbe 831b d5be 371a 23be
00000090: 8a30 1fbf 62c4 953e fc10 223e 66ae 273e
000000a0: 2d2a 10be d45a e0bd 98c0 7b3e 632b 073f
000000b0: 69e4 9b3e 1f04 a23e 753c fdbd 5c76 e53e
000000c0: fae5 fc3e 16c6 de3d 6f3b 973e 0e02 02be
000000d0: 5d01 6f3d ce5b c8be dc11 e3bd 77e9 0bbe
000000e0: 2c29 253f 34c3 f73e 479c dfbd 04f5 8dbe
000000f0: 0938 973d 9f21 d3be 7780 7c3e 51db 4bbe
00000100: 1390 dfbd c98a 2ebe 4e27 8fbc e339 87bf
00000110: aeae bcbd 2769 a4be 0265 0dbe 6ddb 22bc
00000120: 0993 2c3f dbfb f9bd a827 ae3e 7410 99bd
00000130: 9211 b0bd 14ad e03e 63b5 88be b3c5 023e
00000140: dd9f 213f 02f0 8ebe 6920 113f 20a2 15be
00000150: 7b01 b9bd bcdf c7bd 3943 ab3c c1ab 15be
00000160: b178 45be b56e 20be 1abb 15bd c96f e83d
00000170: 7aaa 96bd a777 f33d 8cd9 863d b7f9 a0be
00000180: dd0a 0d3f 53a9 01be cd43 94bd 2841 62bf

model.4.weight f4 [4, 100]
0.037584778 -0.20125861 0.45842513 -0.06255918 0.20714988 0.21594775 -0.038748465 -0.03399502
-0.14326146 0.07860989 0.0370712 0.22023097 -0.27182388 0.25131467 -0.07847685 -0.50826734
-0.69529474 0.21797541 -0.089100614 0.022501575 -0.46022305 0.10370267 -0.011408835 0.10860118
0.029029345 -0.48872662 0.013029808 0.07752383 0.22276936 0.51091003 0.037991367 -0.027677303
0.034652982 0.017709423 -0.04334357 0.23973581 -0.32003602 0.6581924 0.32448164 0.012252545
0.04132627 -0.22746699 -0.16935731 -0.77896416 -0.5161589 -0.29671183 0.08328907 0.62365246
-0.5289715 0.2846131 0.16781385 -0.11824209 -0.102713615 0.16916022 0.0010445511 0.0462227
0.04866263 0.59613127 -0.04243987 -0.13879946 -0.2578078 -0.09706083 0.1658771 0.11100107
-0.05711246 -0.10142518 -0.26847187 0.41927207 0.010628689 0.19775708 0.072806306 -0.006127264
1.0253533 0.0030714322 0.63973534 -0.119840324 -0.10528555 -0.54232985 -0.10437869 0.3406746
0.112048246 -0.079214364 0.59078693 -0.11049257 0.041232888 -0.14480323 -0.19371797 -0.010853775
0.06252588 -0.12163489 0.02922923 -0.18012404 0.0013748035 -0.4594742 0.3640456 0.061452586
0.36360925 0.03281053 0.015650576 0.43589237 0.052028157 -0.4324172 0.034084298 -0.0225502
0.35500002 0.10018723 -0.07546663 -0.087964594 -0.15772401 -0.054959595 -0.06979624 0.105173804
-0.041957796 0.05912878 0.13354652 -0.12843722 -0.24069807 -0.50596917 -0.11254948 0.068202116
-0.17525896 0.2556327 0.090443745 -0.16582188 -0.03987734 -0.28186876 -0.06718589 0.033203684
0.25040844 0.22664675 0.06961519 0.06266364 0.035438463 0.07934117 -0.099151574 0.036809273
-0.0860903 0.21887235 -0.17465566 -0.09902234 0.019315165 -0.054074496 0.97769547 -0.6611658
-0.24893638 -0.4295204 0.024266746 0.19410926 -0.041380536 0.019923888 0.13351049 -0.037473626
-0.16390336 -0.012759343 0.07278445 -0.1306429 0.15578921 -0.011954187 0.026907707 -0.24906403
-0.12081414 -0.11484578 0.15264921 0.06540543 -0.026017055 -0.088465065 -0.14485894 0.0689751
-0.07803831 -0.031515606 -0.040853173 -0.26184943 -0.1479037 0.039454475 0.49481896 -0.3709267
0.05211074 -0.32789543 -0.03974319 0.022290533 0.237814 -0.17208534 0.4718649 -0.00667593
7.613003e-05 -0.32318434 -0.18526888 0.0780046 -0.00031774153 0.07218838 -0.0047827433 -0.104434945
0.038609512 -0.35838097 0.018264094 0.021041192 0.18910322 -0.021429494 0.12114011 0.26167077
-0.03132455 -0.04260996 0.2063265 0.2459477 0.5158509 0.27525166 0.034382124 0.047597006
0.008015675 -0.019141018 -0.38047382 0.017153848 -0.19419894 0.7594006 -0.0052205655 -0.14568277
0.27276358 -0.18303624 -0.01913493 0.044880547 -0.49152264 0.22772455 0.025305802 -0.2432701
-0.10235396 -0.39249 0.0731651 0.08621748 0.29914486 0.70009863 -0.058042444 0.027696053
-0.06005349 0.041346025 -0.16163138 0.3260853 -0.46020547 -0.060004734 0.3462251 0.18891498
-0.003132133 0.07903854 -0.23431906 -0.39892164 -0.29320356 -0.2564805 0.16991241 0.16223276
0.22852036 -0.087059766 0.121609114 -0.022818148 0.114939705 -0.13874058 0.038773075 -0.18549383
00000000: 7ff2 193d bd16 4ebe b3b6 ea3e 071f 80bd
00000010: 191f 543e 6821 5d3e b6b6 1ebd 5d3e 0bbd
00000020: 22b3 12be 39fe a03d f8d7 173d 3a84 613e
00000030: 802c 8bbe 51ac 803e 79b8 a0bd cf1d 02bf
00000040: d6fe 31bf f234 5f3e 627a b6bd 3955 b83c
00000050: 5ba2 ebbe 1162 d43d 1fec 3abc 4c6a de3d
00000060: f3ce ed3c 603a fabe fa7a 553c d0c4 9e3d
00000070: a71d 643e 00cb 023f d69c 1b3d 83bb e2bc
00000080: 49f0 0d3d 5a13 913c 0789 31bd 4e7d 753e
00000090: c3db a3be 4c7f 283f 7522 a63e e6be 483c
000000a0: bc45 293d 1bed 68be 016c 2dbe 326a 47bf
000000b0: fd22 04bf 9dea 97be 7693 aa3d b0a7 1f3f
000000c0: ad6a 07bf cfb8 913e 65d7 2b3e e928 f2bd
000000d0: 845b d2bd 5638 2d3e 52e9 883a 0454 3d3d
000000e0: 7752 473d 0f9c 183f 6ed5 2dbd 7221 0ebe
000000f0: 62ff 83be d4c7 c6bd b0db 293e 8754 e33d
00000100: c1ee 69bd 01b8 cfbd 2575 89be d4aa d63e
00000110: f423 2e3c d580 4a3e 791b 953d 37c7 c8bb
00000120: c73e 833f 154a 493b b2c5 233f d86e f5bd
00000130: f39f d7bd 21d6 0abf 7fc4 d5bd e76c ae3e
00000140: 8d79 e53d 243b a2bd d03d 173f ee49 e2bd
00000150: d1e3 283d 4c47 14be 015e 46be 08d4 31bc
00000160: 920d 803d b71b f9bd 2372 ef3c 7072 38be
00000170: c032 b43a 3440 ebbe 2f64 ba3e b5b5 7b3d
00000180: fe2a ba3e 5664 063d a335 803c 492d df3e
00000190: 7a1b 553d ca65 ddbe fa9b 0b3d 32bb b8bc
000001a0: 90c2 b53e f62e cd3d 408e 9abd c826 b4bd
000001b0: 6782 21be 501d 61bd 55f1 8ebd 5d65 d73d
000001c0: f0db 2bbd 0531 723d 6bc0 083e 0c85 03be
000001d0: 8e79 76be 3287 01bf 5780 e6bd 8dad 8b3d
000001e0: 1677 33be 4ae2 823e 923a b93d 36cd 29be
000001f0: 6c56 23bd 1a51 90be c298 89bd 9600 083d
00000200: 8935 803e 1616 683e 6992 8e3d cb55 803d
00000210: ec27 113d a07d a23d fb0f cbbd 52c5 163d
00000220: 1c50 b0bd 1320 603e efd8 32be 39cc cabd
00000230: d63a 9e3c 387d 5dbd 404a 7a3f 2942 29bf
00000240: 2ee9 7ebe 19ea dbbe 0ecb c63c 94c4 463e
00000250: a37e 29bd 6c37 a33c f9b6 083e f27d 19bd
00000260: 48d6 27be 900c 51bc 0410 953d 41c7 05be
00000270: 3587 1f3e 7fdb 43bc 8d6d dc3c a40a 7fbe
00000280: 676d f7bd 4434 ebbd 1350 1c3e 48f3 853d
00000290: b821 d5bc 2c2d b5bd e755 14be d142 8d3d
000002a0: 8dd2 9fbd 8216 01bd a855 27bd 2111 86be
000002b0: 1174 17be 049b 213d e958 fd3e 1bea bdbe
000002c0: 1272 553d e9e1 a7be c1c9 22bd a39a b63c
000002d0: 8385 733e 2437 30be 4798 f13e c3c1 dabb
000002e0: 00a8 9f38 6b78 a5be 20b7 3dbe e0c0 9f3d
000002f0: 8c96 a6b9 80d7 933d 8fb8 9cbb fde1 d5bd
00000300: 0225 1e3d b67d b7be 959e 953c 945e ac3c
00000310: 46a4 413e e88c afbc 4e18 f83d b6f9 853e
00000320: 2c4e 00bd c887 2ebd 4147 533e b7d9 7b3e
00000330: ce0e 043f c9ed 8c3e 45d4 0c3d 14f5 423d
00000340: 2d54 033c a0cd 9cbc 77cd c2be 3a86 8c3c
00000350: 16dc 46be 1468 423f 4711 abbb dd2d 15be
00000360: aba7 8b3e da6d 3bbe dbc0 9cbc aad4 373d
00000370: dba8 fbbe a030 693e 1d4e cf3c cc1b 79be
00000380: f49e d1bd 73f4 c8be 95d7 953d ca92 b03d
00000390: 8429 993e aa39 333f eabd 6dbd d5e2 e23c
000003a0: a6fa 75bd 735a 293d b282 25be a7f4 a63e
000003b0: 0da0 ebbe 86c7 75bd 6b44 b13e ee72 413e
000003c0: 7944 4dbb f5de a13d 56f1 6fbe 753f ccbe
000003d0: c71e 96be 6951 83be 85fd 2d3e 5820 263e
000003e0: 3e01 6a3e 644c b2bd 330e f93d 20ed babc
000003f0: 8265 eb3d 0312 0ebe 84d0 1e3d 18f2 3dbe

model.4.bias f4 [4]
-1.0893232 -0.44707263 0.15637584 -0.73429435
00000000: f16e 8bbf b4e6 e4be fd20 203e b7fa 3bbf

exp_avg f4 [150, 64]
6e-45 6e-45 6e-45 6e-45 6e-45 6e-45 6e-45 6e-45
6e-45 6e-45 6e-45 6e-45 6e-45 6e-45 6e-45 6e-45
6e-45 6e-45 6e-45 6e-45 6e-45 6e-45 6e-45 6e-45
6e-45 6e-45 6e-45 6e-45 6e-45 6e-45 6e-45 6e-45
6e-45 6e-45 6e-45 6e-45 6e-45 6e-45 6e-45 6e-45
6e-45 6e-45 6e-45 6e-45 6e-45 6e-45 6e-45 6e-45
6e-45 6e-45 6e-45 6e-45 6e-45 6e-45 6e-45 6e-45
6e-45 6e-45 6e-45 6e-45 6e-45 6e-45 6e-45 6e-45
0.0 0.0 0.0 0.0 0.0 0.0 0.0 0.0
0.0 0.0 0.0 0.0 0.0 0.0 0.0 0.0
0.0 0.0 0.0 0.0 0.0 0.0 0.0 0.0
0.0 0.0 0.0 0.0 0.0 0.0 0.0 0.0
0.0 0.0 0.0 0.0 0.0 0.0 0.0 0.0
0.0 0.0 0.0 0.0 0.0 0.0 0.0 0.0
0.0 0.0 0.0 0.0 0.0 0.0 0.0 0.0
0.0 0.0 0.0 0.0 0.0 0.0 0.0 0.0
-0.0007801381 -0.00082626793 -0.0007241025 -0.0012116277 -0.0007826014 -0.0011913398 -0.0010853541 -0.0006946407
-0.0004408224 -0.0014680271 -0.0026088117 -0.016657192 -0.0011409578 -0.0009810191 -0.0069731586 0.0010599246
-0.02145665 -0.0009128232 -0.0013536735 -0.0013954908 -0.0010652145 -0.0010780188 -0.0007898654 -0.0011273052
-0.0011862939 -0.0006852415 -0.0011533559 -0.0013069395 -0.0009711284 -0.0012572324 -0.0010320732 -0.0012981135
-0.0010437928 -0.021954812 -0.0012485044 -0.00094859436 -0.0010652195 -0.0011886742 -0.00090199016 -0.0010039295
-0.0008931255 -0.00072638935 -0.0012352958 -0.0011306085 -0.00101661 -0.0008740573 -0.0010017705 -0.0009091427
-0.0010364456 -0.0013387873 -0.00085991994 -0.00094220747 -0.0010997199 -0.02208128 -0.001003022 -0.0010193113
-0.0011393274 -0.0011912734 -0.0010053127 -0.0009851179 -0.0012995183 -0.0012558762 -0.0013248455 -0.00062475126
6e-45 6e-45 6e-45 6e-45 6e-45 6e-45 6e-45 6e-45
6e-45 6e-45 6e-45 6e-45 6e-45 6e-45 6e-45 6e-45
6e-45 6e-45 6e-45 6e-45 6e-45 6e-45 6e-45 6e-45
6e-45 6e-45 6e-45 6e-45 6e-45 6e-45 6e-45 6e-45
6e-45 6e-45 6e-45 6e-45 6e-45 6e-45 6e-45 6e-45
6e-45 6e-45 6e-45 6e-45 6e-45 6e-45 6e-45 6e-45
6e-45 6e-45 6e-45 6e-45 6e-45 6e-45 6e-45 6e-45
6e-45 6e-45 6e-45 6e-45 6e-45 6e-45 6e-45 6e-45
00000000: 0400 0000 0400 0000 0400 0000 0400 0000
00000010: 0400 0000 0400 0000 0400 0000 0400 0000
00000020: 0400 0000 0400 0000 0400 0000 0400 0000
00000030: 0400 0000 0400 0000 0400 0000 0400 0000
00000040: 0400 0000 0400 0000 0400 0000 0400 0000
00000050: 0400 0000 0400 0000 0400 0000 0400 0000
00000060: 0400 0000 0400 0000 0400 0000 0400 0000
00000070: 0400 0000 0400 0000 0400 0000 0400 0000
00000080: 0400 0000 0400 0000 0400 0000 0400 0000
00000090: 0400 0000 0400 0000 0400 0000 0400 0000
000000a0: 0400 0000 0400 0000 0400 0000 0400 0000
000000b0: 0400 0000 0400 0000 0400 0000 0400 0000
000000c0: 0400 0000 0400 0000 0400 0000 0400 0000
000000d0: 0400 0000 0400 0000 0400 0000 0400 0000
000000e0: 0400 0000 0400 0000 0400 0000 0400 0000
000000f0: 0400 0000 0400 0000 0400 0000 0400 0000
00000100: 0000 0000 0000 0000 0000 0000 0000 0000
00000110: 0000 0000 0000 0000 0000 0000 0000 0000
00000120: 0000 0000 0000 0000 0000 0000 0000 0000
00000130: 0000 0000 0000 0000 0000 0000 0000 0000
00000140: 0000 0000 0000 0000 0000 0000 0000 0000
00000150: 0000 0000 0000 0000 0000 0000 0000 0000
00000160: 0000 0000 0000 0000 0000 0000 0000 0000
00000170: 0000 0000 0000 0000 0000 0000 0000 0000
00000180: 0000 0000 0000 0000 0000 0000 0000 0000
00000190: 0000 0000 0000 0000 0000 0000 0000 0000
000001a0: 0000 0000 0000 0000 0000 0000 0000 0000
000001b0: 0000 0000 0000 0000 0000 0000 0000 0000
000001c0: 0000 0000 0000 0000 0000 0000 0000 0000
000001d0: 0000 0000 0000 0000 0000 0000 0000 0000
000001e0: 0000 0000 0000 0000 0000 0000 0000 0000
000001f0: 0000 0000 0000 0000 0000 0000 0000 0000
00000200: 2f82 4cba e799 58ba b2d1 3dba 7bcf 9eba
00000210: 7e27 4dba bb26 9cba 7142 8eba 8c18 36ba
00000220: 2e1e e7b9 d16a c0ba 99f8 2abb aa74 88bc
00000230: 318c 95ba 8a95 80ba 187f e4bb 2bed 8a3a
00000240: dbc5 afbc 874a 6fba bf6d b1ba e7e8 b6ba
00000250: ab9e 8bba 4f4c 8dba f80e 4fba 16c2 93ba
00000260: 6b7d 9bba c7a1 33ba 342c 97ba 9d4d abba
00000270: 5393 7eba b8c9 a4ba a146 87ba 7625 aaba
00000280: e0cf 88ba 94da b3bc dba4 a3ba 17ab 78ba
00000290: d69e 8bba 4acd 9bba 8973 6cba 4996 83ba
000002a0: a320 6aba 2a6b 3eba a6e9 a1ba ed30 94ba
000002b0: c53f 85ba fe20 65ba d74d 83ba 8953 6eba
000002c0: 58d9 87ba 3f7a afba 406c 61ba 79fe 76ba
000002d0: 7a24 90ba cde3 b4bc d577 83ba 699a 85ba
000002e0: 7c55 95ba 8124 9cba b2c4 83ba 121f 81ba
000002f0: 9954 aaba 369c a4ba 70a6 adba 59c6 23ba
00000300: 0400 0000 0400 0000 0400 0000 0400 0000
00000310: 0400 0000 0400 0000 0400 0000 0400 0000
00000320: 0400 0000 0400 0000 0400 0000 0400 0000
00000330: 0400 0000 0400 0000 0400 0000 0400 0000
00000340: 0400 0000 0400 0000 0400 0000 0400 0000
00000350: 0400 0000 0400 0000 0400 0000 0400 0000
00000360: 0400 0000 0400 0000 0400 0000 0400 0000
00000370: 0400 0000 0400 0000 0400 0000 0400 0000
00000380: 0400 0000 0400 0000 0400 0000 0400 0000
00000390: 0400 0000 0400 0000 0400 0000 0400 0000
000003a0: 0400 0000 0400 0000 0400 0000 0400 0000
000003b0: 0400 0000 0400 0000 0400 0000 0400 0000
000003c0: 0400 0000 0400 0000 0400 0000 0400 0000
000003d0: 0400 0000 0400 0000 0400 0000 0400 0000
000003e0: 0400 0000 0400 0000 0400 0000 0400 0000
000003f0: 0400 0000 0400 0000 0400 0000 0400 0000

exp_avg_sq f4 [150, 64]
7e-43 7e-43 7e-43 7e-43 7e-43 7e-43 7e-43 7e-43
7e-43 7e-43 7e-43 7e-43 7e-43 7e-43 7e-43 7e-43
7e-43 7e-43 7e-43 7e-43 7e-43 7e-43 7e-43 7e-43
7e-43 7e-43 7e-43 7e-43 7e-43 7e-43 7e-43 7e-43
7e-43 7e-43 7e-43 7e-43 7e-43 7e-43 7e-43 7e-43
7e-43 7e-43 7e-43 7e-43 7e-43 7e-43 7e-43 7e-43
7e-43 7e-43 7e-43 7e-43 7e-43 7e-43 7e-43 7e-43
7e-43 7e-43 7e-43 7e-43 7e-43 7e-43 7e-43 7e-43
0.0 0.0 0.0 0.0 0.0 0.0 0.0 0.0
0.0 0.0 0.0 0.0 0.0 0.0 0.0 0.0
0.0 0.0 0.0 0.0 0.0 0.0 0.0 0.0
0.0 0.0 0.0 0.0 0.0 0.0 0.0 0.0
0.0 0.0 0.0 0.0 0.0 0.0 0.0 0.0
0.0 0.0 0.0 0.0 0.0 0.0 0.0 0.0
0.0 0.0 0.0 0.0 0.0 0.0 0.0 0.0
0.0 0.0 0.0 0.0 0.0 0.0 0.0 0.0
7.6033452e-06 7.308639e-06 0.0003593461 0.0004413441 0.00012722578 7.4069517e-06 7.638436e-05 0.0002103817
9.7249176e-05 0.00017358249 6.6770896e-05 0.00043531792 8.271673e-05 0.00025907168 8.807432e-05 0.0003269243
0.0026522244 7.4471072e-06 7.403473e-06 8.009157e-06 7.983087e-06 7.841011e-06 7.721122e-06 7.5094854e-06
7.795131e-06 7.337412e-06 7.907291e-06 8.139875e-06 7.5929374e-06 7.4594386e-06 7.384531e-06 7.237446e-06
7.355249e-06 0.002657288 7.563057e-06 7.738208e-06 7.940875e-06 7.982695e-06 7.328403e-06 7.199544e-06
7.38289e-06 7.6905335e-06 7.622361e-06 7.928916e-06 8.023876e-06 7.622723e-06 7.2131998e-06 7.802346e-06
7.581079e-06 7.2773437e-06 7.4291474e-06 7.566342e-06 7.307331e-06 0.0026615618 7.5181074e-06 8.032352e-06
7.5579915e-06 7.2785833e-06 7.755581e-06 7.4012087e-06 8.294484e-06 7.976417e-06 7.697963e-06 7.122975e-06
7e-43 7e-43 7e-43 7e-43 7e-43 7e-43 7e-43 7e-43
7e-43 7e-43 7e-43 7e-43 7e-43 7e-43 7e-43 7e-43
7e-43 7e-43 7e-43 7e-43 7e-43 7e-43 7e-43 7e-43
7e-43 7e-43 7e-43 7e-43 7e-43 7e-43 7e-43 7e-43
7e-43 7e-43 7e-43 7e-43 7e-43 7e-43 7e-43 7e-43
7e-43 7e-43 7e-43 7e-43 7e-43 7e-43 7e-43 7e-43
7e-43 7e-43 7e-43 7e-43 7e-43 7e-43 7e-43 7e-43
7e-43 7e-43 7e-43 7e-43 7e-43 7e-43 7e-43 7e-43
00000000: f401 0000 f401 0000 f401 0000 f401 0000
00000010: f401 0000 f401 0000 f401 0000 f401 0000
00000020: f401 0000 f401 0000 f401 0000 f401 0000
00000030: f401 0000 f401 0000 f401 0000 f401 0000
00000040: f401 0000 f401 0000 f401 0000 f401 0000
00000050: f401 0000 f401 0000 f401 0000 f401 0000
00000060: f401 0000 f401 0000 f401 0000 f401 0000
00000070: f401 0000 f401 0000 f401 0000 f401 0000
00000080: f401 0000 f401 0000 f401 0000 f401 0000
00000090: f401 0000 f401 0000 f401 0000 f401 0000
000000a0: f401 0000 f401 0000 f401 0000 f401 0000
000000b0: f401 0000 f401 0000 f401 0000 f401 0000
000000c0: f401 0000 f401 0000 f401 0000 f401 0000
000000d0: f401 0000 f401 0000 f401 0000 f401 0000
000000e0: f401 0000 f401 0000 f401 0000 f401 0000
000000f0: f401 0000 f401 0000 f401 0000 f401 0000
00000100: 0000 0000 0000 0000 0000 0000 0000 0000
00000110: 0000 0000 0000 0000 0000 0000 0000 0000
00000120: 0000 0000 0000 0000 0000 0000 0000 0000
00000130: 0000 0000 0000 0000 0000 0000 0000 0000
00000140: 0000 0000 0000 0000 0000 0000 0000 0000
00000150: 0000 0000 0000 0000 0000 0000 0000 0000
00000160: 0000 0000 0000 0000 0000 0000 0000 0000
00000170: 0000 0000 0000 0000 0000 0000 0000 0000
00000180: 0000 0000 0000 0000 0000 0000 0000 0000
00000190: 0000 0000 0000 0000 0000 0000 0000 0000
000001a0: 0000 0000 0000 0000 0000 0000 0000 0000
000001b0: 0000 0000 0000 0000 0000 0000 0000 0000
000001c0: 0000 0000 0000 0000 0000 0000 0000 0000
000001d0: 0000 0000 0000 0000 0000 0000 0000 0000
000001e0: 0000 0000 0000 0000 0000 0000 0000 0000
000001f0: 0000 0000 0000 0000 0000 0000 0000 0000
00000200: 3d20 ff36 bb3c f536 9e66 bc39 3464 e739
00000210: e967 0539 3b89 f836 8b30 a038 e899 5c39
00000220: 41f2 cb38 b203 3639 5a07 8c38 623b e439
00000230: 3578 ad38 03d4 8739 8ab4 b838 0967 ab39
00000240: f1d0 2d3b 2ae2 f936 596b f836 115f 0637
00000250: 19ef 0537 e38c 0337 f789 0137 fdf9 fb36
00000260: d5c7 0237 e433 f636 8ea9 0437 7f90 0837
00000270: d6c6 fe36 174c fa36 a3c8 f736 30d9 f236
00000280: 1ccd f636 e525 2e3b 2ac6 fd36 5ad3 0137
00000290: cc39 0537 6aed 0537 81e6 f536 9d93 f136
000002a0: 8bba f736 9706 0137 95c3 ff36 6f06 0537
000002b0: 499e 0637 b1c6 ff36 ea08 f236 d2e6 0237
000002c0: f960 fe36 e82f f436 e447 f936 62e2 fd36
000002d0: 7f31 f536 996d 2e3b 0d44 fc36 b0c2 0637
000002e0: a79a fd36 8e3a f436 f71d 0237 e657 f836
000002f0: 8a28 0b37 73d2 0537 8026 0137 e401 ef36
00000300: f401 0000 f401 0000 f401 0000 f401 0000
00000310: f401 0000 f401 0000 f401 0000 f401 0000
00000320: f401 0000 f401 0000 f401 0000 f401 0000
00000330: f401 0000 f401 0000 f401 0000 f401 0000
00000340: f401 0000 f401 0000 f401 0000 f401 0000
00000350: f401 0000 f401 0000 f401 0000 f401 0000
00000360: f401 0000 f401 0000 f401 0000 f401 0000
00000370: f401 0000 f401 0000 f401 0000 f401 0000
00000380: f401 0000 f401 0000 f401 0000 f401 0000
00000390: f401 0000 f401 0000 f401 0000 f401 0000
000003a0: f401 0000 f401 0000 f401 0000 f401 0000
000003b0: f401 0000 f401 0000 f401 0000 f401 0000
000003c0: f401 0000 f401 0000 f401 0000 f401 0000
000003d0: f401 0000 f401 0000 f401 0000 f401 0000
000003e0: f401 0000 f401 0000 f401 0000 f401 0000
000003f0: f401 0000 f401 0000 f401 0000 f401 0000

exp_avg f4 [150]
6e-45 0.0 -0.020821474 6e-45 0.0 6e-45 6e-45 6e-45
6e-45 6e-45 6e-45 6e-45 6e-45 6e-45 6e-45 6e-45
6e-45 6e-45 6e-45 6e-45 6e-45 -2.1555064e-05 6e-45 0.0
6e-45 6e-45 6e-45 6e-45 6e-45 6e-45 6e-45 6e-45
0.0 6e-45 6e-45 0.0 6e-45 6e-45 0.00021114176 6e-45
6e-45 6e-45 6e-45 0.013290975 6e-45 0.0 6e-45 6e-45
6e-45 6e-45 6e-45 -0.0026709498 6e-45 6e-45 0.0 6e-45
-0.007023031 6e-45 6e-45 6e-45 6e-45 0.00022563654 6e-45 0.0
6e-45 6e-45 0.0 0.0 0.0 0.0 6e-45 6e-45
-0.009987443 6e-45 0.0 6e-45 -0.0131426295 6e-45 6e-45 6e-45
6e-45 6e-45 6e-45 6e-45 6e-45 0.0 6e-45 6e-45
-0.0022652394 6e-45 6e-45 6e-45 6e-45 6e-45 0.0 0.0
6e-45 0.0 0.0020406467 0.0 0.0 -0.017178591 6e-45 6e-45
6e-45 6e-45 6e-45 6e-45 6e-45 6e-45 6e-45 6e-45
6e-45 6e-45 0.0 6e-45 6e-45 0.0 6e-45 6e-45
6e-45 6e-45 0.0009838191 0.0 0.0 6e-45 0.020047138 6e-45
0.0 0.0 6e-45 6e-45 6e-45 6e-45 -0.010821047 6e-45
6e-45 0.0 6e-45 6e-45 6e-45 6e-45 6e-45 -0.02275302
6e-45 6e-45 6e-45 6e-45 6e-45 6e-45
00000000: 0400 0000 0000 0000 cc91 aabc 0400 0000
00000010: 0000 0000 0400 0000 0400 0000 0400 0000
00000020: 0400 0000 0400 0000 0400 0000 0400 0000
00000030: 0400 0000 0400 0000 0400 0000 0400 0000
00000040: 0400 0000 0400 0000 0400 0000 0400 0000
00000050: 0400 0000 26d1 b4b7 0400 0000 0000 0000
00000060: 0400 0000 0400 0000 0400 0000 0400 0000
00000070: 0400 0000 0400 0000 0400 0000 0400 0000
00000080: 0000 0000 0400 0000 0400 0000 0000 0000
00000090: 0400 0000 0400 0000 ef65 5d39 0400 0000
000000a0: 0400 0000 0400 0000 0400 0000 64c2 593c
000000b0: 0400 0000 0000 0000 0400 0000 0400 0000
000000c0: 0400 0000 0400 0000 0400 0000 1a0b 2fbb
000000d0: 0400 0000 0400 0000 0000 0000 0400 0000
000000e0: 7421 e6bb 0400 0000 0400 0000 0400 0000
000000f0: 0400 0000 d998 6c39 0400 0000 0000 0000
00000100: 0400 0000 0400 0000 0000 0000 0000 0000
00000110: 0000 0000 0000 0000 0400 0000 0400 0000
00000120: 5fa2 23bc 0400 0000 0000 0000 0400 0000
00000130: 2f54 57bc 0400 0000 0400 0000 0400 0000
00000140: 0400 0000 0400 0000 0400 0000 0400 0000
00000150: 0400 0000 0000 0000 0400 0000 0400 0000
00000160: 6974 14bb 0400 0000 0400 0000 0400 0000
00000170: 0400 0000 0400 0000 0000 0000 0000 0000
00000180: 0400 0000 0000 0000 5fbc 053b 0000 0000
00000190: 0000 0000 1eba 8cbc 0400 0000 0400 0000
000001a0: 0400 0000 0400 0000 0400 0000 0400 0000
000001b0: 0400 0000 0400 0000 0400 0000 0400 0000
000001c0: 0400 0000 0400 0000 0000 0000 0400 0000
000001d0: 0400 0000 0000 0000 0400 0000 0400 0000
000001e0: 0400 0000 0400 0000 7ef3 803a 0000 0000
000001f0: 0000 0000 0400 0000 e539 a43c 0400 0000
00000200: 0000 0000 0000 0000 0400 0000 0400 0000
00000210: 0400 0000 0400 0000 c34a 31bc 0400 0000
00000220: 0400 0000 0000 0000 0400 0000 0400 0000
00000230: 0400 0000 0400 0000 0400 0000 8b64 babc
00000240: 0400 0000 0400 0000 0400 0000 0400 0000
00000250: 0400 0000 0400 0000

exp_avg_sq f4 [150]
7e-43 0.0 0.0024065932 7e-43 0.0 7e-43 7e-43 7e-43
7e-43 7e-43 7e-43 7e-43 7e-43 7e-43 7e-43 7e-43
7e-43 2.0561415e-36 7e-43 7e-43 7e-43 7.5893404e-05 7e-43 0.0
7e-43 7e-43 7e-43 2.0827099e-14 1.7662706e-37 7e-43 7e-43 7e-43
0.0 7e-43 7e-43 0.0 7e-43 7e-43 0.00013714244 7e-43
7e-43 7e-43 7e-43 0.000923938 1.04446854e-10 0.0 7e-43 1.3053185e-35
1.635e-42 7e-43 7e-43 0.000551455 7e-43 7e-43 0.0 7e-43
0.00030421198 7e-43 7e-43 7e-43 7e-43 0.00021687259 7e-43 0.0
7e-43 7e-43 0.0 0.0 0.0 0.0 7e-43 7e-43
0.00068739644 8.100982e-30 0.0 7e-43 0.0005017764 7e-43 7e-43 7e-43
7e-43 7e-43 7e-43 7e-43 7e-43 0.0 6.9211976e-33 7e-43
0.00061254844 7e-43 7e-43 7e-43 7e-43 9.699592e-11 0.0 0.0
7e-43 0.0 0.0014069534 0.0 0.0 0.00060669857 7e-43 7e-43
7e-43 7e-43 7e-43 7e-43 7e-43 7e-43 7e-43 7e-43
7e-43 7e-43 0.0 7e-43 7e-43 0.0 8.32947e-31 7e-43
5.7316094e-09 7e-43 1.6764123e-05 0.0 0.0 7e-43 0.0015487449 7e-43
0.0 0.0 7e-43 7e-43 7e-43 7e-43 0.0013877624 7e-43
7e-43 0.0 7e-43 7e-43 7e-43 7e-43 7e-43 0.0012066975
7e-43 7e-43 7e-43 7e-43 7e-43 7e-43
00000000: f401 0000 0000 0000 efb7 1d3b f401 0000
00000010: 0000 0000 f401 0000 f401 0000 f401 0000
00000020: f401 0000 f401 0000 f401 0000 f401 0000
00000030: f401 0000 f401 0000 f401 0000 f401 0000
00000040: f401 0000 ccea 2e04 f401 0000 f401 0000
00000050: f401 0000 f628 9f38 f401 0000 0000 0000
00000060: f401 0000 f401 0000 f401 0000 0598 bb28
00000070: 8c69 7002 f401 0000 f401 0000 f401 0000
00000080: 0000 0000 f401 0000 f401 0000 0000 0000
00000090: f401 0000 f401 0000 e5cd 0f39 f401 0000
000000a0: f401 0000 f401 0000 f401 0000 6e34 723a
000000b0: 5aae e52e 0000 0000 f401 0000 26ce 8a05
000000c0: 8f04 0000 f401 0000 f401 0000 858f 103a
000000d0: f401 0000 f401 0000 0000 0000 f401 0000
000000e0: a47e 9f39 f401 0000 f401 0000 f401 0000
000000f0: f401 0000 4b68 6339 f401 0000 0000 0000
00000100: f401 0000 f401 0000 0000 0000 0000 0000
00000110: 0000 0000 0000 0000 f401 0000 f401 0000
00000120: 6532 343a b44e 240f 0000 0000 f401 0000
00000130: a589 033a f401 0000 f401 0000 f401 0000
00000140: f401 0000 f401 0000 f401 0000 f401 0000
00000150: f401 0000 0000 0000 66bf 0f0a f401 0000
00000160: 6e93 203a f401 0000 f401 0000 f401 0000
00000170: f401 0000 d94b d52e 0000 0000 0000 0000
00000180: f401 0000 0000 0000 8669 b83a 0000 0000
00000190: 0000 0000 da0a 1f3a f401 0000 f401 0000
000001a0: f401 0000 f401 0000 f401 0000 f401 0000
000001b0: f401 0000 f401 0000 f401 0000 f401 0000
000001c0: f401 0000 f401 0000 0000 0000 f401 0000
000001d0: f401 0000 0000 0000 4427 870d f401 0000
000001e0: c5ef c431 f401 0000 aea0 8c37 0000 0000
000001f0: 0000 0000 f401 0000 41ff ca3a f401 0000
00000200: 0000 0000 0000 0000 f401 0000 f401 0000
00000210: f401 0000 f401 0000 94e5 b53a f401 0000
00000220: f401 0000 0000 0000 f401 0000 f401 0000
00000230: f401 0000 f401 0000 f401 0000 0d2a 9e3a
00000240: f401 0000 f401 0000 f401 0000 f401 0000
00000250: f401 0000 f401 0000

exp_avg f4 [100, 150]
6e-45 0.0 6e-45 6e-45 0.0 6e-45 6e-45 6e-45
6e-45 6e-45 6e-45 6e-45 6e-45 6e-45 6e-45 6e-45
6e-45 6e-45 6e-45 6e-45 6e-45 6e-45 0.0 0.0
6e-45 6e-45 0.0 6e-45 6e-45 0.0 6e-45 6e-45
0.0 6e-45 6e-45 0.0 0.0 6e-45 6e-45 0.0
6e-45 6e-45 6e-45 6e-45 6e-45 0.0 6e-45 6e-45
6e-45 6e-45 6e-45 6e-45 0.0 6e-45 0.0 6e-45
6e-45 0.0 6e-45 0.0 6e-45 6e-45 6e-45 0.0
6e-45 0.0 0.0 0.0 0.0 0.0 6e-45 6e-45
6e-45 6e-45 0.0 0.0 6e-45 6e-45 0.0 6e-45
0.0 6e-45 6e-45 6e-45 0.0 0.0 6e-45 6e-45
6e-45 0.0 6e-45 0.0 6e-45 6e-45 0.0 0.0
6e-45 0.0 6e-45 0.0 0.0 6e-45 6e-45 6e-45
6e-45 6e-45 6e-45 6e-45 0.0 6e-45 6e-45 0.0
0.0 6e-45 0.0 6e-45 6e-45 0.0 6e-45 0.0
6e-45 6e-45 6e-45 0.0 0.0 0.0 6e-45 6e-45
0.0 0.0 6e-45 6e-45 0.0 6e-45 6e-45 6e-45
0.0 0.0 6e-45 0.0 6e-45 6e-45 6e-45 6e-45
6e-45 6e-45 6e-45 6e-45 6e-45 6e-45 6e-45 0.0
1.0593011e-09 6e-45 0.0 6e-45 6e-45 6e-45 6e-45 6e-45
-6e-45 6e-45 -6e-45 6e-45 6e-45 6e-45 6e-45 -6e-45
6e-45 6e-45 6e-45 6e-45 6e-45 0.0 6e-45 6e-45
0.0 6e-45 6e-45 6e-45 6e-45 6e-45 0.0 6e-45
6e-45 0.0 0.0 6e-45 6e-45 6e-45 6e-45 6e-45
6e-45 1.8007e-41 -6e-45 0.0 -6e-45 6e-45 6e-45 6e-45
-6e-45 2.8236395e-09 6e-45 6e-45 0.0 -6e-45 -6e-45 6e-45
6e-45 0.0 6e-45 6e-45 6e-45 0.0 6e-45 6e-45
0.0 0.0 0.0 0.0 -6e-45 6e-45 6e-45 6e-45
0.0 0.0 4.3704906e-09 6e-45 6e-45 6e-45 0.0 -6e-45
-6e-45 6e-45 6e-45 0.0 6e-45 -6e-45 -6e-45 6e-45
6e-45 6e-45 6e-45 6e-45 0.0 0.0 6e-45 0.0
6e-45 0.0 0.0 6e-45 -6e-45 6e-45 6e-45 6e-45
00000000: 0400 0000 0000 0000 0400 0000 0400 0000
00000010: 0000 0000 0400 0000 0400 0000 0400 0000
00000020: 0400 0000 0400 0000 0400 0000 0400 0000
00000030: 0400 0000 0400 0000 0400 0000 0400 0000
00000040: 0400 0000 0400 0000 0400 0000 0400 0000
00000050: 0400 0000 0400 0000 0000 0000 0000 0000
00000060: 0400 0000 0400 0000 0000 0000 0400 0000
00000070: 0400 0000 0000 0000 0400 0000 0400 0000
00000080: 0000 0000 0400 0000 0400 0000 0000 0000
00000090: 0000 0000 0400 0000 0400 0000 0000 0000
000000a0: 0400 0000 0400 0000 0400 0000 0400 0000
000000b0: 0400 0000 0000 0000 0400 0000 0400 0000
000000c0: 0400 0000 0400 0000 0400 0000 0400 0000
000000d0: 0000 0000 0400 0000 0000 0000 0400 0000
000000e0: 0400 0000 0000 0000 0400 0000 0000 0000
000000f0: 0400 0000 0400 0000 0400 0000 0000 0000
00000100: 0400 0000 0000 0000 0000 0000 0000 0000
00000110: 0000 0000 0000 0000 0400 0000 0400 0000
00000120: 0400 0000 0400 0000 0000 0000 0000 0000
00000130: 0400 0000 0400 0000 0000 0000 0400 0000
00000140: 0000 0000 0400 0000 0400 0000 0400 0000
00000150: 0000 0000 0000 0000 0400 0000 0400 0000
00000160: 0400 0000 0000 0000 0400 0000 0000 0000
00000170: 0400 0000 0400 0000 0000 0000 0000 0000
00000180: 0400 0000 0000 0000 0400 0000 0000 0000
00000190: 0000 0000 0400 0000 0400 0000 0400 0000
000001a0: 0400 0000 0400 0000 0400 0000 0400 0000
000001b0: 0000 0000 0400 0000 0400 0000 0000 0000
000001c0: 0000 0000 0400 0000 0000 0000 0400 0000
000001d0: 0400 0000 0000 0000 0400 0000 0000 0000
000001e0: 0400 0000 0400 0000 0400 0000 0000 0000
000001f0: 0000 0000 0000 0000 0400 0000 0400 0000
00000200: 0000 0000 0000 0000 0400 0000 0400 0000
00000210: 0000 0000 0400 0000 0400 0000 0400 0000
00000220: 0000 0000 0000 0000 0400 0000 0000 0000
00000230: 0400 0000 0400 0000 0400 0000 0400 0000
00000240: 0400 0000 0400 0000 0400 0000 0400 0000
00000250: 0400 0000 0400 0000 0400 0000 0000 0000
00000260: d896 9130 0400 0000 0000 0000 0400 0000
00000270: 0400 0000 0400 0000 0400 0000 0400 0000
00000280: 0400 0080 0400 0000 0400 0080 0400 0000
00000290: 0400 0000 0400 0000 0400 0000 0400 0080
000002a0: 0400 0000 0400 0000 0400 0000 0400 0000
000002b0: 0400 0000 0000 0000 0400 0000 0400 0000
000002c0: 0000 0000 0400 0000 0400 0000 0400 0000
000002d0: 0400 0000 0400 0000 0000 0000 0400 0000
000002e0: 0400 0000 0000 0000 0000 0000 0400 0000
000002f0: 0400 0000 0400 0000 0400 0000 0400 0000
00000300: 0400 0000 3232 0000 0400 0080 0000 0000
00000310: 0400 0080 0400 0000 0400 0000 0400 0000
00000320: 0400 0080 fe09 4231 0400 0000 0400 0000
00000330: 0000 0000 0400 0080 0400 0080 0400 0000
00000340: 0400 0000 0000 0000 0400 0000 0400 0000
00000350: 0400 0000 0000 0000 0400 0000 0400 0000
00000360: 0000 0000 0000 0000 0000 0000 0000 0000
00000370: 0400 0080 0400 0000 0400 0000 0400 0000
00000380: 0000 0000 0000 0000 3e2b 9631 0400 0000
00000390: 0400 0000 0400 0000 0000 0000 0400 0080
000003a0: 0400 0080 0400 0000 0400 0000 0000 0000
000003b0: 0400 0000 0400 0080 0400 0080 0400 0000
000003c0: 0400 0000 0400 0000 0400 0000 0400 0000
000003d0: 0000 0000 0000 0000 0400 0000 0000 0000
000003e0: 0400 0000 0000 0000 0000 0000 0400 0000
000003f0: 0400 0080 0400 0000 0400 0000 0400 0000
